…
        Vector Action space size (per agent): 2
        Vector Action descriptions: ,
Number of agents: 2
Size of each action: 2
/Users/mshtelma/anaconda/envs/deeprl/lib/python3.6/site-packages/torch/nn/functional.py:995: UserWarning: nn.functional.tanh is deprecated. Use torch.tanh instead.
  warnings.warn("nn.functional.tanh is deprecated. Use torch.tanh instead.")
----------------------------------------------------------------
        Layer (type)               Output Shape         Param #
================================================================
         DummyBody-1                [-1, 1, 48]               0
            Linear-2                [-1, 1, 32]           1,568
            Linear-3                [-1, 1, 32]           1,056
            FCBody-4                [-1, 1, 32]               0
            Linear-5                [-1, 1, 32]           1,568
            Linear-6                [-1, 1, 32]           1,056
            FCBody-7                [-1, 1, 32]               0
            Linear-8                 [-1, 1, 4]             132
            Linear-9                 [-1, 1, 1]              33
================================================================
Total params: 5,413
Trainable params: 5,413
Non-trainable params: 0
----------------------------------------------------------------
Input size (MB): 0.00
Forward/backward pass size (MB): 0.00
Params size (MB): 0.02
Estimated Total Size (MB): 0.02
----------------------------------------------------------------
Episode: 223,  mean reward: 0.0100
…
